…
<span class=3D"o">.</span><span class=3D"n">Adam</span><span class=3D"p">(<=
/span><span class=3D"n">model</span><span class=3D"o">.</span><span class=
=3D"n">parameters</span><span class=3D"p">(),</span> <span class=3D"n">lr</=
span><span class=3D"o">=3D</span><span class=3D"mf">5e-4</span><span class=
=3D"p">)</span>
</pre></div>

    </div>
</div>
</div>

<div class=3D"output_wrapper">
<div class=3D"output">


<div class=3D"output_area">

    <div class=3D"prompt"></div>


<div class=3D"output_subarea output_stream output_stdout output_text">
<pre>Model(
  (conv): Sequential(
    (0): Conv2d(3, 32, kernel_size=3D(3, 3), stride=3D(1, 1))
    (1): ReLU()
    (2): BatchNorm2d(32, eps=3D1e-05, momentum=3D0.1, affine=3DTrue, track_=
running_stats=3DTrue)
    (3): Conv2d(32, 32, kernel_size=3D(3, 3), stride=3D(1, 1))
    (4): ReLU()
    (5): BatchNorm2d(32, eps=3D1e-05, momentum=3D0.1, affine=3DTrue, track_=
running_stats=3DTrue)
    (6): Conv2d(32, 64, kernel_size=3D(3, 3), stride=3D(1, 1))
    (7): ReLU()
    (8): BatchNorm2d(64, eps=3D1e-05, momentum=3D0.1, affine=3DTrue, track_=
running_stats=3DTrue)
  )
  (flatten): Sequential(
    (0): AdaptiveMaxPool2d(output_size=3D1)
    (1): Flatten(start_dim=3D1, end_dim=3D-1)
  )
  (fc): Sequential(
    (0): Linear(in_features=3D64, out_features=3D512, bias=3DTrue)
    (1): ReLU()
    (2): Linear(in_features=3D512, out_features=3D43, bias=3DTrue)
  )
)
</pre>
</div>
</div>

</div>
</div>

</div>
    </div>

    <div class=3D"">
       =20
<div class=3D"cell border-box-sizing code_cell rendered">
<div class=3D"input">
<div class=3D"prompt input_prompt">In&nbsp;[7]:</div>
<div class=3D"inner_cell">
    <div class=3D"input_area">
<div class=3D" highlight hl-ipython3"><pre><span></span><span class=3D"o">%=
…
<span class=3D"o">.</span><span class=3D"n">Adam</span><span class=3D"p">(<=
/span><span class=3D"n">model</span><span class=3D"o">.</span><span class=
=3D"n">parameters</span><span class=3D"p">(),</span> <span class=3D"n">lr</=
span><span class=3D"o">=3D</span><span class=3D"mf">5e-4</span><span class=
=3D"p">)</span>
</pre></div>

    </div>
</div>
</div>

<div class=3D"output_wrapper">
<div class=3D"output">


<div class=3D"output_area">

    <div class=3D"prompt"></div>


<div class=3D"output_subarea output_stream output_stdout output_text">
<pre>Model(
  (conv): Sequential(
    (0): Conv2d(1, 32, kernel_size=3D(3, 3), stride=3D(1, 1))
    (1): ReLU()
    (2): BatchNorm2d(32, eps=3D1e-05, momentum=3D0.1, affine=3DTrue, track_=
running_stats=3DTrue)
    (3): Conv2d(32, 32, kernel_size=3D(3, 3), stride=3D(1, 1))
    (4): ReLU()
    (5): BatchNorm2d(32, eps=3D1e-05, momentum=3D0.1, affine=3DTrue, track_=
running_stats=3DTrue)
    (6): Conv2d(32, 64, kernel_size=3D(3, 3), stride=3D(1, 1))
    (7): ReLU()
    (8): BatchNorm2d(64, eps=3D1e-05, momentum=3D0.1, affine=3DTrue, track_=
running_stats=3DTrue)
  )
  (flatten): Sequential(
    (0): AdaptiveMaxPool2d(output_size=3D1)
    (1): Flatten(start_dim=3D1, end_dim=3D-1)
  )
  (fc): Sequential(
    (0): Linear(in_features=3D64, out_features=3D512, bias=3DTrue)
    (1): ReLU()
    (2): Linear(in_features=3D512, out_features=3D43, bias=3DTrue)
  )
)
</pre>
</div>
</div>

</div>
</div>

</div>
    </div>

    <div class=3D"">
       =20
<div class=3D"cell border-box-sizing code_cell rendered">
<div class=3D"input">
<div class=3D"prompt input_prompt">In&nbsp;[15]:</div>
<div class=3D"inner_cell">
    <div class=3D"input_area">
<div class=3D" highlight hl-ipython3"><pre><span></span><span class=3D"o">%=
…
