…
div></div><div class=3D"lm-Widget p-Widget jp-OutputArea jp-Cell-outputArea=
"><div class=3D"lm-Widget p-Widget lm-Panel p-Panel jp-OutputArea-child"><d=
iv class=3D"lm-Widget p-Widget jp-OutputPrompt jp-OutputArea-prompt"></div>=
<div class=3D"lm-Widget p-Widget jp-RenderedText jp-mod-trusted jp-OutputAr=
ea-output" data-mime-type=3D"application/vnd.jupyter.stdout"><pre>Transform=
erClassifier(
  (encoder): TransformerEncoder(
    (layers): ModuleList(
      (0): TransformerEncoderLayer(
        (self_attn): MultiheadAttention(
          (out_proj): _LinearWithBias(in_features=3D768, out_features=3D768=
, bias=3DTrue)
        )
        (linear1): Linear(in_features=3D768, out_features=3D256, bias=3DTru=
e)
        (dropout): Dropout(p=3D0.1, inplace=3DFalse)
        (linear2): Linear(in_features=3D256, out_features=3D768, bias=3DTru=
e)
        (norm1): LayerNorm((768,), eps=3D1e-05, elementwise_affine=3DTrue)
        (norm2): LayerNorm((768,), eps=3D1e-05, elementwise_affine=3DTrue)
        (dropout1): Dropout(p=3D0.1, inplace=3DFalse)
        (dropout2): Dropout(p=3D0.1, inplace=3DFalse)
      )
      (1): TransformerEncoderLayer(
        (self_attn): MultiheadAttention(
          (out_proj): _LinearWithBias(in_features=3D768, out_features=3D768=
, bias=3DTrue)
        )
        (linear1): Linear(in_features=3D768, out_features=3D256, bias=3DTru=
e)
        (dropout): Dropout(p=3D0.1, inplace=3DFalse)
        (linear2): Linear(in_features=3D256, out_features=3D768, bias=3DTru=
e)
        (norm1): LayerNorm((768,), eps=3D1e-05, elementwise_affine=3DTrue)
        (norm2): LayerNorm((768,), eps=3D1e-05, elementwise_affine=3DTrue)
        (dropout1): Dropout(p=3D0.1, inplace=3DFalse)
        (dropout2): Dropout(p=3D0.1, inplace=3DFalse)
      )
      (2): TransformerEncoderLayer(
        (self_attn): MultiheadAttention(
          (out_proj): _LinearWithBias(in_features=3D768, out_features=3D768=
, bias=3DTrue)
        )
        (linear1): Linear(in_features=3D768, out_features=3D256, bias=3DTru=
e)
        (dropout): Dropout(p=3D0.1, inplace=3DFalse)
        (linear2): Linear(in_features=3D256, out_features=3D768, bias=3DTru=
e)
        (norm1): LayerNorm((768,), eps=3D1e-05, elementwise_affine=3DTrue)
        (norm2): LayerNorm((768,), eps=3D1e-05, elementwise_affine=3DTrue)
        (dropout1): Dropout(p=3D0.1, inplace=3DFalse)
        (dropout2): Dropout(p=3D0.1, inplace=3DFalse)
      )
      (3): TransformerEncoderLayer(
        (self_attn): MultiheadAttention(
          (out_proj): _LinearWithBias(in_features=3D768, out_features=3D768=
, bias=3DTrue)
        )
        (linear1): Linear(in_features=3D768, out_features=3D256, bias=3DTru=
e)
        (dropout): Dropout(p=3D0.1, inplace=3DFalse)
        (linear2): Linear(in_features=3D256, out_features=3D768, bias=3DTru=
e)
        (norm1): LayerNorm((768,), eps=3D1e-05, elementwise_affine=3DTrue)
        (norm2): LayerNorm((768,), eps=3D1e-05, elementwise_affine=3DTrue)
        (dropout1): Dropout(p=3D0.1, inplace=3DFalse)
        (dropout2): Dropout(p=3D0.1, inplace=3DFalse)
      )
    )
  )
  (flatten): Sequential(
    (0): MaxPool2d(kernel_size=3D(3, 3), stride=3D(3, 3), padding=3D0, dila=
tion=3D1, ceil_mode=3DFalse)
    (1): Flatten(start_dim=3D1, end_dim=3D-1)
  )
  (linear): Linear(in_features=3D5376, out_features=3D2, bias=3DTrue)
)
</pre></div></div></div></div><div class=3D"lm-Widget p-Widget jp-CellFoote=
r jp-Cell-footer"><template shadowmode=3D"open"><div class=3D"light"><div c=
lass=3D"CellSpacer_Body-sc-72fxs LauKr" style=3D"margin-left: 60px; margin-=
top: 5px; opacity: 0;"><div class=3D"CellSpacer_SpacerControls-sc-11npz9u h=
FSluW"><button title=3D"Add a code cell" class=3D"SpacerButton-sc-6yzgl4 jO=
…
